01/18 06:03:26 PM Namespace(exp_name='spos_c10_train_supernet', layers=16, num_choices=3, batch_size=96, epochs=600, learning_rate=0.025, momentum=0.9, weight_decay=0.0003, print_freq=100, val_interval=5, ckpt_dir='./checkpoints/', seed=0, data_root='./dataset/', classes=10, dataset='cifar10', cutout=False, cutout_length=16, auto_aug=False, resize=False, device=device(type='cuda'))
01/18 06:03:27 PM SinglePath_OneShot(
  (stem): Sequential(
    (0): Conv2d(3, 32, kernel_size=(3, 3), stride=(1, 1), padding=(1, 1), bias=False)
    (1): BatchNorm2d(32, eps=1e-05, momentum=0.1, affine=False, track_running_stats=True)
    (2): ReLU6(inplace=True)
    (3): Conv2d(32, 16, kernel_size=(3, 3), stride=(1, 1), bias=False)
    (4): BatchNorm2d(16, eps=1e-05, momentum=0.1, affine=False, track_running_stats=True)
    (5): ReLU6(inplace=True)
  )
  (choice_block): ModuleList(
    (0): ModuleList(
      (0): Choice_Block_mb(
        (cb_main): Sequential(
          (0): Conv2d(16, 96, kernel_size=(1, 1), stride=(1, 1), bias=False)
          (1): BatchNorm2d(96, eps=1e-05, momentum=0.1, affine=False, track_running_stats=True)
          (2): ReLU6(inplace=True)
          (3): Conv2d(96, 96, kernel_size=(3, 3), stride=(1, 1), padding=(1, 1), groups=96, bias=False)
          (4): BatchNorm2d(96, eps=1e-05, momentum=0.1, affine=False, track_running_stats=True)
          (5): ReLU6(inplace=True)
          (6): Conv2d(96, 24, kernel_size=(1, 1), stride=(1, 1), bias=False)
          (7): BatchNorm2d(24, eps=1e-05, momentum=0.1, affine=False, track_running_stats=True)
        )
      )
      (1): Choice_Block_mb(
        (cb_main): Sequential(
          (0): Conv2d(16, 96, kernel_size=(1, 1), stride=(1, 1), bias=False)
          (1): BatchNorm2d(96, eps=1e-05, momentum=0.1, affine=False, track_running_stats=True)
          (2): ReLU6(inplace=True)
          (3): Conv2d(96, 96, kernel_size=(5, 5), stride=(1, 1), padding=(2, 2), groups=96, bias=False)
          (4): BatchNorm2d(96, eps=1e-05, momentum=0.1, affine=False, track_running_stats=True)
          (5): ReLU6(inplace=True)
          (6): Conv2d(96, 24, kernel_size=(1, 1), stride=(1, 1), bias=False)
          (7): BatchNorm2d(24, eps=1e-05, momentum=0.1, affine=False, track_running_stats=True)
        )
      )
      (2): Choice_Block_mb(
        (cb_main): Sequential(
          (0): Conv2d(16, 96, kernel_size=(1, 1), stride=(1, 1), bias=False)
          (1): BatchNorm2d(96, eps=1e-05, momentum=0.1, affine=False, track_running_stats=True)
          (2): ReLU6(inplace=True)
          (3): Conv2d(96, 96, kernel_size=(7, 7), stride=(1, 1), padding=(3, 3), groups=96, bias=False)
          (4): BatchNorm2d(96, eps=1e-05, momentum=0.1, affine=False, track_running_stats=True)
          (5): ReLU6(inplace=True)
          (6): Conv2d(96, 24, kernel_size=(1, 1), stride=(1, 1), bias=False)
          (7): BatchNorm2d(24, eps=1e-05, momentum=0.1, affine=False, track_running_stats=True)
        )
      )
    )
    (1): ModuleList(
      (0): Choice_Block_mb(
        (cb_main): Sequential(
          (0): Conv2d(24, 144, kernel_size=(1, 1), stride=(1, 1), bias=False)
          (1): BatchNorm2d(144, eps=1e-05, momentum=0.1, affine=False, track_running_stats=True)
          (2): ReLU6(inplace=True)
          (3): Conv2d(144, 144, kernel_size=(3, 3), stride=(1, 1), padding=(1, 1), groups=144, bias=False)
          (4): BatchNorm2d(144, eps=1e-05, momentum=0.1, affine=False, track_running_stats=True)
          (5): ReLU6(inplace=True)
          (6): Conv2d(144, 24, kernel_size=(1, 1), stride=(1, 1), bias=False)
          (7): BatchNorm2d(24, eps=1e-05, momentum=0.1, affine=False, track_running_stats=True)
        )
      )
      (1): Choice_Block_mb(
        (cb_main): Sequential(
          (0): Conv2d(24, 144, kernel_size=(1, 1), stride=(1, 1), bias=False)
          (1): BatchNorm2d(144, eps=1e-05, momentum=0.1, affine=False, track_running_stats=True)
          (2): ReLU6(inplace=True)
          (3): Conv2d(144, 144, kernel_size=(5, 5), stride=(1, 1), padding=(2, 2), groups=144, bias=False)
          (4): BatchNorm2d(144, eps=1e-05, momentum=0.1, affine=False, track_running_stats=True)
          (5): ReLU6(inplace=True)
          (6): Conv2d(144, 24, kernel_size=(1, 1), stride=(1, 1), bias=False)
          (7): BatchNorm2d(24, eps=1e-05, momentum=0.1, affine=False, track_running_stats=True)
        )
      )
      (2): Choice_Block_mb(
        (cb_main): Sequential(
          (0): Conv2d(24, 144, kernel_size=(1, 1), stride=(1, 1), bias=False)
          (1): BatchNorm2d(144, eps=1e-05, momentum=0.1, affine=False, track_running_stats=True)
          (2): ReLU6(inplace=True)
          (3): Conv2d(144, 144, kernel_size=(7, 7), stride=(1, 1), padding=(3, 3), groups=144, bias=False)
          (4): BatchNorm2d(144, eps=1e-05, momentum=0.1, affine=False, track_running_stats=True)
          (5): ReLU6(inplace=True)
          (6): Conv2d(144, 24, kernel_size=(1, 1), stride=(1, 1), bias=False)
          (7): BatchNorm2d(24, eps=1e-05, momentum=0.1, affine=False, track_running_stats=True)
        )
      )
    )
    (2): ModuleList(
      (0): Choice_Block_mb(
        (cb_main): Sequential(
          (0): Conv2d(24, 144, kernel_size=(1, 1), stride=(1, 1), bias=False)
          (1): BatchNorm2d(144, eps=1e-05, momentum=0.1, affine=False, track_running_stats=True)
          (2): ReLU6(inplace=True)
          (3): Conv2d(144, 144, kernel_size=(3, 3), stride=(1, 1), padding=(1, 1), groups=144, bias=False)
          (4): BatchNorm2d(144, eps=1e-05, momentum=0.1, affine=False, track_running_stats=True)
          (5): ReLU6(inplace=True)
          (6): Conv2d(144, 32, kernel_size=(1, 1), stride=(1, 1), bias=False)
          (7): BatchNorm2d(32, eps=1e-05, momentum=0.1, affine=False, track_running_stats=True)
        )
      )
      (1): Choice_Block_mb(
        (cb_main): Sequential(
          (0): Conv2d(24, 144, kernel_size=(1, 1), stride=(1, 1), bias=False)
          (1): BatchNorm2d(144, eps=1e-05, momentum=0.1, affine=False, track_running_stats=True)
          (2): ReLU6(inplace=True)
          (3): Conv2d(144, 144, kernel_size=(5, 5), stride=(1, 1), padding=(2, 2), groups=144, bias=False)
          (4): BatchNorm2d(144, eps=1e-05, momentum=0.1, affine=False, track_running_stats=True)
          (5): ReLU6(inplace=True)
          (6): Conv2d(144, 32, kernel_size=(1, 1), stride=(1, 1), bias=False)
          (7): BatchNorm2d(32, eps=1e-05, momentum=0.1, affine=False, track_running_stats=True)
        )
      )
      (2): Choice_Block_mb(
        (cb_main): Sequential(
          (0): Conv2d(24, 144, kernel_size=(1, 1), stride=(1, 1), bias=False)
          (1): BatchNorm2d(144, eps=1e-05, momentum=0.1, affine=False, track_running_stats=True)
          (2): ReLU6(inplace=True)
          (3): Conv2d(144, 144, kernel_size=(7, 7), stride=(1, 1), padding=(3, 3), groups=144, bias=False)
          (4): BatchNorm2d(144, eps=1e-05, momentum=0.1, affine=False, track_running_stats=True)
          (5): ReLU6(inplace=True)
          (6): Conv2d(144, 32, kernel_size=(1, 1), stride=(1, 1), bias=False)
          (7): BatchNorm2d(32, eps=1e-05, momentum=0.1, affine=False, track_running_stats=True)
        )
      )
    )
    (3): ModuleList(
      (0): Choice_Block_mb(
        (cb_main): Sequential(
          (0): Conv2d(32, 192, kernel_size=(1, 1), stride=(1, 1), bias=False)
          (1): BatchNorm2d(192, eps=1e-05, momentum=0.1, affine=False, track_running_stats=True)
          (2): ReLU6(inplace=True)
          (3): Conv2d(192, 192, kernel_size=(3, 3), stride=(1, 1), padding=(1, 1), groups=192, bias=False)
          (4): BatchNorm2d(192, eps=1e-05, momentum=0.1, affine=False, track_running_stats=True)
          (5): ReLU6(inplace=True)
          (6): Conv2d(192, 32, kernel_size=(1, 1), stride=(1, 1), bias=False)
          (7): BatchNorm2d(32, eps=1e-05, momentum=0.1, affine=False, track_running_stats=True)
        )
      )
      (1): Choice_Block_mb(
        (cb_main): Sequential(
          (0): Conv2d(32, 192, kernel_size=(1, 1), stride=(1, 1), bias=False)
          (1): BatchNorm2d(192, eps=1e-05, momentum=0.1, affine=False, track_running_stats=True)
          (2): ReLU6(inplace=True)
          (3): Conv2d(192, 192, kernel_size=(5, 5), stride=(1, 1), padding=(2, 2), groups=192, bias=False)
          (4): BatchNorm2d(192, eps=1e-05, momentum=0.1, affine=False, track_running_stats=True)
          (5): ReLU6(inplace=True)
          (6): Conv2d(192, 32, kernel_size=(1, 1), stride=(1, 1), bias=False)
          (7): BatchNorm2d(32, eps=1e-05, momentum=0.1, affine=False, track_running_stats=True)
        )
      )
      (2): Choice_Block_mb(
        (cb_main): Sequential(
          (0): Conv2d(32, 192, kernel_size=(1, 1), stride=(1, 1), bias=False)
          (1): BatchNorm2d(192, eps=1e-05, momentum=0.1, affine=False, track_running_stats=True)
          (2): ReLU6(inplace=True)
          (3): Conv2d(192, 192, kernel_size=(7, 7), stride=(1, 1), padding=(3, 3), groups=192, bias=False)
          (4): BatchNorm2d(192, eps=1e-05, momentum=0.1, affine=False, track_running_stats=True)
          (5): ReLU6(inplace=True)
          (6): Conv2d(192, 32, kernel_size=(1, 1), stride=(1, 1), bias=False)
          (7): BatchNorm2d(32, eps=1e-05, momentum=0.1, affine=False, track_running_stats=True)
        )
      )
    )
    (4): ModuleList(
      (0): Choice_Block_mb(
        (cb_main): Sequential(
          (0): Conv2d(32, 192, kernel_size=(1, 1), stride=(1, 1), bias=False)
          (1): BatchNorm2d(192, eps=1e-05, momentum=0.1, affine=False, track_running_stats=True)
          (2): ReLU6(inplace=True)
          (3): Conv2d(192, 192, kernel_size=(3, 3), stride=(1, 1), padding=(1, 1), groups=192, bias=False)
          (4): BatchNorm2d(192, eps=1e-05, momentum=0.1, affine=False, track_running_stats=True)
          (5): ReLU6(inplace=True)
          (6): Conv2d(192, 32, kernel_size=(1, 1), stride=(1, 1), bias=False)
          (7): BatchNorm2d(32, eps=1e-05, momentum=0.1, affine=False, track_running_stats=True)
        )
      )
      (1): Choice_Block_mb(
        (cb_main): Sequential(
          (0): Conv2d(32, 192, kernel_size=(1, 1), stride=(1, 1), bias=False)
          (1): BatchNorm2d(192, eps=1e-05, momentum=0.1, affine=False, track_running_stats=True)
          (2): ReLU6(inplace=True)
          (3): Conv2d(192, 192, kernel_size=(5, 5), stride=(1, 1), padding=(2, 2), groups=192, bias=False)
          (4): BatchNorm2d(192, eps=1e-05, momentum=0.1, affine=False, track_running_stats=True)
          (5): ReLU6(inplace=True)
          (6): Conv2d(192, 32, kernel_size=(1, 1), stride=(1, 1), bias=False)
          (7): BatchNorm2d(32, eps=1e-05, momentum=0.1, affine=False, track_running_stats=True)
        )
      )
      (2): Choice_Block_mb(
        (cb_main): Sequential(
          (0): Conv2d(32, 192, kernel_size=(1, 1), stride=(1, 1), bias=False)
          (1): BatchNorm2d(192, eps=1e-05, momentum=0.1, affine=False, track_running_stats=True)
          (2): ReLU6(inplace=True)
          (3): Conv2d(192, 192, kernel_size=(7, 7), stride=(1, 1), padding=(3, 3), groups=192, bias=False)
          (4): BatchNorm2d(192, eps=1e-05, momentum=0.1, affine=False, track_running_stats=True)
          (5): ReLU6(inplace=True)
          (6): Conv2d(192, 32, kernel_size=(1, 1), stride=(1, 1), bias=False)
          (7): BatchNorm2d(32, eps=1e-05, momentum=0.1, affine=False, track_running_stats=True)
        )
      )
    )
    (5): ModuleList(
      (0): Choice_Block_mb(
        (cb_main): Sequential(
          (0): Conv2d(32, 192, kernel_size=(1, 1), stride=(1, 1), bias=False)
          (1): BatchNorm2d(192, eps=1e-05, momentum=0.1, affine=False, track_running_stats=True)
          (2): ReLU6(inplace=True)
          (3): Conv2d(192, 192, kernel_size=(3, 3), stride=(1, 1), padding=(1, 1), groups=192, bias=False)
          (4): BatchNorm2d(192, eps=1e-05, momentum=0.1, affine=False, track_running_stats=True)
          (5): ReLU6(inplace=True)
          (6): Conv2d(192, 64, kernel_size=(1, 1), stride=(1, 1), bias=False)
          (7): BatchNorm2d(64, eps=1e-05, momentum=0.1, affine=False, track_running_stats=True)
        )
      )
      (1): Choice_Block_mb(
        (cb_main): Sequential(
          (0): Conv2d(32, 192, kernel_size=(1, 1), stride=(1, 1), bias=False)
          (1): BatchNorm2d(192, eps=1e-05, momentum=0.1, affine=False, track_running_stats=True)
          (2): ReLU6(inplace=True)
          (3): Conv2d(192, 192, kernel_size=(5, 5), stride=(1, 1), padding=(2, 2), groups=192, bias=False)
          (4): BatchNorm2d(192, eps=1e-05, momentum=0.1, affine=False, track_running_stats=True)
          (5): ReLU6(inplace=True)
          (6): Conv2d(192, 64, kernel_size=(1, 1), stride=(1, 1), bias=False)
          (7): BatchNorm2d(64, eps=1e-05, momentum=0.1, affine=False, track_running_stats=True)
        )
      )
      (2): Choice_Block_mb(
        (cb_main): Sequential(
          (0): Conv2d(32, 192, kernel_size=(1, 1), stride=(1, 1), bias=False)
          (1): BatchNorm2d(192, eps=1e-05, momentum=0.1, affine=False, track_running_stats=True)
          (2): ReLU6(inplace=True)
          (3): Conv2d(192, 192, kernel_size=(7, 7), stride=(1, 1), padding=(3, 3), groups=192, bias=False)
          (4): BatchNorm2d(192, eps=1e-05, momentum=0.1, affine=False, track_running_stats=True)
          (5): ReLU6(inplace=True)
          (6): Conv2d(192, 64, kernel_size=(1, 1), stride=(1, 1), bias=False)
          (7): BatchNorm2d(64, eps=1e-05, momentum=0.1, affine=False, track_running_stats=True)
        )
      )
    )
    (6): ModuleList(
      (0): Choice_Block_mb(
        (cb_main): Sequential(
          (0): Conv2d(64, 384, kernel_size=(1, 1), stride=(1, 1), bias=False)
          (1): BatchNorm2d(384, eps=1e-05, momentum=0.1, affine=False, track_running_stats=True)
          (2): ReLU6(inplace=True)
          (3): Conv2d(384, 384, kernel_size=(3, 3), stride=(2, 2), padding=(1, 1), groups=384, bias=False)
          (4): BatchNorm2d(384, eps=1e-05, momentum=0.1, affine=False, track_running_stats=True)
          (5): ReLU6(inplace=True)
          (6): Conv2d(384, 64, kernel_size=(1, 1), stride=(1, 1), bias=False)
          (7): BatchNorm2d(64, eps=1e-05, momentum=0.1, affine=False, track_running_stats=True)
        )
      )
      (1): Choice_Block_mb(
        (cb_main): Sequential(
          (0): Conv2d(64, 384, kernel_size=(1, 1), stride=(1, 1), bias=False)
          (1): BatchNorm2d(384, eps=1e-05, momentum=0.1, affine=False, track_running_stats=True)
          (2): ReLU6(inplace=True)
          (3): Conv2d(384, 384, kernel_size=(5, 5), stride=(2, 2), padding=(2, 2), groups=384, bias=False)
          (4): BatchNorm2d(384, eps=1e-05, momentum=0.1, affine=False, track_running_stats=True)
          (5): ReLU6(inplace=True)
          (6): Conv2d(384, 64, kernel_size=(1, 1), stride=(1, 1), bias=False)
          (7): BatchNorm2d(64, eps=1e-05, momentum=0.1, affine=False, track_running_stats=True)
        )
      )
      (2): Choice_Block_mb(
        (cb_main): Sequential(
          (0): Conv2d(64, 384, kernel_size=(1, 1), stride=(1, 1), bias=False)
          (1): BatchNorm2d(384, eps=1e-05, momentum=0.1, affine=False, track_running_stats=True)
          (2): ReLU6(inplace=True)
          (3): Conv2d(384, 384, kernel_size=(7, 7), stride=(2, 2), padding=(3, 3), groups=384, bias=False)
          (4): BatchNorm2d(384, eps=1e-05, momentum=0.1, affine=False, track_running_stats=True)
          (5): ReLU6(inplace=True)
          (6): Conv2d(384, 64, kernel_size=(1, 1), stride=(1, 1), bias=False)
          (7): BatchNorm2d(64, eps=1e-05, momentum=0.1, affine=False, track_running_stats=True)
        )
      )
    )
    (7): ModuleList(
      (0): Choice_Block_mb(
        (cb_main): Sequential(
          (0): Conv2d(64, 384, kernel_size=(1, 1), stride=(1, 1), bias=False)
          (1): BatchNorm2d(384, eps=1e-05, momentum=0.1, affine=False, track_running_stats=True)
          (2): ReLU6(inplace=True)
          (3): Conv2d(384, 384, kernel_size=(3, 3), stride=(1, 1), padding=(1, 1), groups=384, bias=False)
          (4): BatchNorm2d(384, eps=1e-05, momentum=0.1, affine=False, track_running_stats=True)
          (5): ReLU6(inplace=True)
          (6): Conv2d(384, 64, kernel_size=(1, 1), stride=(1, 1), bias=False)
          (7): BatchNorm2d(64, eps=1e-05, momentum=0.1, affine=False, track_running_stats=True)
        )
      )
      (1): Choice_Block_mb(
        (cb_main): Sequential(
          (0): Conv2d(64, 384, kernel_size=(1, 1), stride=(1, 1), bias=False)
          (1): BatchNorm2d(384, eps=1e-05, momentum=0.1, affine=False, track_running_stats=True)
          (2): ReLU6(inplace=True)
          (3): Conv2d(384, 384, kernel_size=(5, 5), stride=(1, 1), padding=(2, 2), groups=384, bias=False)
          (4): BatchNorm2d(384, eps=1e-05, momentum=0.1, affine=False, track_running_stats=True)
          (5): ReLU6(inplace=True)
          (6): Conv2d(384, 64, kernel_size=(1, 1), stride=(1, 1), bias=False)
          (7): BatchNorm2d(64, eps=1e-05, momentum=0.1, affine=False, track_running_stats=True)
        )
      )
      (2): Choice_Block_mb(
        (cb_main): Sequential(
          (0): Conv2d(64, 384, kernel_size=(1, 1), stride=(1, 1), bias=False)
          (1): BatchNorm2d(384, eps=1e-05, momentum=0.1, affine=False, track_running_stats=True)
          (2): ReLU6(inplace=True)
          (3): Conv2d(384, 384, kernel_size=(7, 7), stride=(1, 1), padding=(3, 3), groups=384, bias=False)
          (4): BatchNorm2d(384, eps=1e-05, momentum=0.1, affine=False, track_running_stats=True)
          (5): ReLU6(inplace=True)
          (6): Conv2d(384, 64, kernel_size=(1, 1), stride=(1, 1), bias=False)
          (7): BatchNorm2d(64, eps=1e-05, momentum=0.1, affine=False, track_running_stats=True)
        )
      )
    )
    (8): ModuleList(
      (0): Choice_Block_mb(
        (cb_main): Sequential(
          (0): Conv2d(64, 384, kernel_size=(1, 1), stride=(1, 1), bias=False)
          (1): BatchNorm2d(384, eps=1e-05, momentum=0.1, affine=False, track_running_stats=True)
          (2): ReLU6(inplace=True)
          (3): Conv2d(384, 384, kernel_size=(3, 3), stride=(1, 1), padding=(1, 1), groups=384, bias=False)
          (4): BatchNorm2d(384, eps=1e-05, momentum=0.1, affine=False, track_running_stats=True)
          (5): ReLU6(inplace=True)
          (6): Conv2d(384, 64, kernel_size=(1, 1), stride=(1, 1), bias=False)
          (7): BatchNorm2d(64, eps=1e-05, momentum=0.1, affine=False, track_running_stats=True)
        )
      )
      (1): Choice_Block_mb(
        (cb_main): Sequential(
          (0): Conv2d(64, 384, kernel_size=(1, 1), stride=(1, 1), bias=False)
          (1): BatchNorm2d(384, eps=1e-05, momentum=0.1, affine=False, track_running_stats=True)
          (2): ReLU6(inplace=True)
          (3): Conv2d(384, 384, kernel_size=(5, 5), stride=(1, 1), padding=(2, 2), groups=384, bias=False)
          (4): BatchNorm2d(384, eps=1e-05, momentum=0.1, affine=False, track_running_stats=True)
          (5): ReLU6(inplace=True)
          (6): Conv2d(384, 64, kernel_size=(1, 1), stride=(1, 1), bias=False)
          (7): BatchNorm2d(64, eps=1e-05, momentum=0.1, affine=False, track_running_stats=True)
        )
      )
      (2): Choice_Block_mb(
        (cb_main): Sequential(
          (0): Conv2d(64, 384, kernel_size=(1, 1), stride=(1, 1), bias=False)
          (1): BatchNorm2d(384, eps=1e-05, momentum=0.1, affine=False, track_running_stats=True)
          (2): ReLU6(inplace=True)
          (3): Conv2d(384, 384, kernel_size=(7, 7), stride=(1, 1), padding=(3, 3), groups=384, bias=False)
          (4): BatchNorm2d(384, eps=1e-05, momentum=0.1, affine=False, track_running_stats=True)
          (5): ReLU6(inplace=True)
          (6): Conv2d(384, 64, kernel_size=(1, 1), stride=(1, 1), bias=False)
          (7): BatchNorm2d(64, eps=1e-05, momentum=0.1, affine=False, track_running_stats=True)
        )
      )
    )
    (9): ModuleList(
      (0): Choice_Block_mb(
        (cb_main): Sequential(
          (0): Conv2d(64, 384, kernel_size=(1, 1), stride=(1, 1), bias=False)
          (1): BatchNorm2d(384, eps=1e-05, momentum=0.1, affine=False, track_running_stats=True)
          (2): ReLU6(inplace=True)
          (3): Conv2d(384, 384, kernel_size=(3, 3), stride=(1, 1), padding=(1, 1), groups=384, bias=False)
          (4): BatchNorm2d(384, eps=1e-05, momentum=0.1, affine=False, track_running_stats=True)
          (5): ReLU6(inplace=True)
          (6): Conv2d(384, 96, kernel_size=(1, 1), stride=(1, 1), bias=False)
          (7): BatchNorm2d(96, eps=1e-05, momentum=0.1, affine=False, track_running_stats=True)
        )
      )
      (1): Choice_Block_mb(
        (cb_main): Sequential(
          (0): Conv2d(64, 384, kernel_size=(1, 1), stride=(1, 1), bias=False)
          (1): BatchNorm2d(384, eps=1e-05, momentum=0.1, affine=False, track_running_stats=True)
          (2): ReLU6(inplace=True)
          (3): Conv2d(384, 384, kernel_size=(5, 5), stride=(1, 1), padding=(2, 2), groups=384, bias=False)
          (4): BatchNorm2d(384, eps=1e-05, momentum=0.1, affine=False, track_running_stats=True)
          (5): ReLU6(inplace=True)
          (6): Conv2d(384, 96, kernel_size=(1, 1), stride=(1, 1), bias=False)
          (7): BatchNorm2d(96, eps=1e-05, momentum=0.1, affine=False, track_running_stats=True)
        )
      )
      (2): Choice_Block_mb(
        (cb_main): Sequential(
          (0): Conv2d(64, 384, kernel_size=(1, 1), stride=(1, 1), bias=False)
          (1): BatchNorm2d(384, eps=1e-05, momentum=0.1, affine=False, track_running_stats=True)
          (2): ReLU6(inplace=True)
          (3): Conv2d(384, 384, kernel_size=(7, 7), stride=(1, 1), padding=(3, 3), groups=384, bias=False)
          (4): BatchNorm2d(384, eps=1e-05, momentum=0.1, affine=False, track_running_stats=True)
          (5): ReLU6(inplace=True)
          (6): Conv2d(384, 96, kernel_size=(1, 1), stride=(1, 1), bias=False)
          (7): BatchNorm2d(96, eps=1e-05, momentum=0.1, affine=False, track_running_stats=True)
        )
      )
    )
    (10): ModuleList(
      (0): Choice_Block_mb(
        (cb_main): Sequential(
          (0): Conv2d(96, 576, kernel_size=(1, 1), stride=(1, 1), bias=False)
          (1): BatchNorm2d(576, eps=1e-05, momentum=0.1, affine=False, track_running_stats=True)
          (2): ReLU6(inplace=True)
          (3): Conv2d(576, 576, kernel_size=(3, 3), stride=(1, 1), padding=(1, 1), groups=576, bias=False)
          (4): BatchNorm2d(576, eps=1e-05, momentum=0.1, affine=False, track_running_stats=True)
          (5): ReLU6(inplace=True)
          (6): Conv2d(576, 96, kernel_size=(1, 1), stride=(1, 1), bias=False)
          (7): BatchNorm2d(96, eps=1e-05, momentum=0.1, affine=False, track_running_stats=True)
        )
      )
      (1): Choice_Block_mb(
        (cb_main): Sequential(
          (0): Conv2d(96, 576, kernel_size=(1, 1), stride=(1, 1), bias=False)
          (1): BatchNorm2d(576, eps=1e-05, momentum=0.1, affine=False, track_running_stats=True)
          (2): ReLU6(inplace=True)
          (3): Conv2d(576, 576, kernel_size=(5, 5), stride=(1, 1), padding=(2, 2), groups=576, bias=False)
          (4): BatchNorm2d(576, eps=1e-05, momentum=0.1, affine=False, track_running_stats=True)
          (5): ReLU6(inplace=True)
          (6): Conv2d(576, 96, kernel_size=(1, 1), stride=(1, 1), bias=False)
          (7): BatchNorm2d(96, eps=1e-05, momentum=0.1, affine=False, track_running_stats=True)
        )
      )
      (2): Choice_Block_mb(
        (cb_main): Sequential(
          (0): Conv2d(96, 576, kernel_size=(1, 1), stride=(1, 1), bias=False)
          (1): BatchNorm2d(576, eps=1e-05, momentum=0.1, affine=False, track_running_stats=True)
          (2): ReLU6(inplace=True)
          (3): Conv2d(576, 576, kernel_size=(7, 7), stride=(1, 1), padding=(3, 3), groups=576, bias=False)
          (4): BatchNorm2d(576, eps=1e-05, momentum=0.1, affine=False, track_running_stats=True)
          (5): ReLU6(inplace=True)
          (6): Conv2d(576, 96, kernel_size=(1, 1), stride=(1, 1), bias=False)
          (7): BatchNorm2d(96, eps=1e-05, momentum=0.1, affine=False, track_running_stats=True)
        )
      )
    )
    (11): ModuleList(
      (0): Choice_Block_mb(
        (cb_main): Sequential(
          (0): Conv2d(96, 576, kernel_size=(1, 1), stride=(1, 1), bias=False)
          (1): BatchNorm2d(576, eps=1e-05, momentum=0.1, affine=False, track_running_stats=True)
          (2): ReLU6(inplace=True)
          (3): Conv2d(576, 576, kernel_size=(3, 3), stride=(1, 1), padding=(1, 1), groups=576, bias=False)
          (4): BatchNorm2d(576, eps=1e-05, momentum=0.1, affine=False, track_running_stats=True)
          (5): ReLU6(inplace=True)
          (6): Conv2d(576, 96, kernel_size=(1, 1), stride=(1, 1), bias=False)
          (7): BatchNorm2d(96, eps=1e-05, momentum=0.1, affine=False, track_running_stats=True)
        )
      )
      (1): Choice_Block_mb(
        (cb_main): Sequential(
          (0): Conv2d(96, 576, kernel_size=(1, 1), stride=(1, 1), bias=False)
          (1): BatchNorm2d(576, eps=1e-05, momentum=0.1, affine=False, track_running_stats=True)
          (2): ReLU6(inplace=True)
          (3): Conv2d(576, 576, kernel_size=(5, 5), stride=(1, 1), padding=(2, 2), groups=576, bias=False)
          (4): BatchNorm2d(576, eps=1e-05, momentum=0.1, affine=False, track_running_stats=True)
          (5): ReLU6(inplace=True)
          (6): Conv2d(576, 96, kernel_size=(1, 1), stride=(1, 1), bias=False)
          (7): BatchNorm2d(96, eps=1e-05, momentum=0.1, affine=False, track_running_stats=True)
        )
      )
      (2): Choice_Block_mb(
        (cb_main): Sequential(
          (0): Conv2d(96, 576, kernel_size=(1, 1), stride=(1, 1), bias=False)
          (1): BatchNorm2d(576, eps=1e-05, momentum=0.1, affine=False, track_running_stats=True)
          (2): ReLU6(inplace=True)
          (3): Conv2d(576, 576, kernel_size=(7, 7), stride=(1, 1), padding=(3, 3), groups=576, bias=False)
          (4): BatchNorm2d(576, eps=1e-05, momentum=0.1, affine=False, track_running_stats=True)
          (5): ReLU6(inplace=True)
          (6): Conv2d(576, 96, kernel_size=(1, 1), stride=(1, 1), bias=False)
          (7): BatchNorm2d(96, eps=1e-05, momentum=0.1, affine=False, track_running_stats=True)
        )
      )
    )
    (12): ModuleList(
      (0): Choice_Block_mb(
        (cb_main): Sequential(
          (0): Conv2d(96, 576, kernel_size=(1, 1), stride=(1, 1), bias=False)
          (1): BatchNorm2d(576, eps=1e-05, momentum=0.1, affine=False, track_running_stats=True)
          (2): ReLU6(inplace=True)
          (3): Conv2d(576, 576, kernel_size=(3, 3), stride=(1, 1), padding=(1, 1), groups=576, bias=False)
          (4): BatchNorm2d(576, eps=1e-05, momentum=0.1, affine=False, track_running_stats=True)
          (5): ReLU6(inplace=True)
          (6): Conv2d(576, 160, kernel_size=(1, 1), stride=(1, 1), bias=False)
          (7): BatchNorm2d(160, eps=1e-05, momentum=0.1, affine=False, track_running_stats=True)
        )
      )
      (1): Choice_Block_mb(
        (cb_main): Sequential(
          (0): Conv2d(96, 576, kernel_size=(1, 1), stride=(1, 1), bias=False)
          (1): BatchNorm2d(576, eps=1e-05, momentum=0.1, affine=False, track_running_stats=True)
          (2): ReLU6(inplace=True)
          (3): Conv2d(576, 576, kernel_size=(5, 5), stride=(1, 1), padding=(2, 2), groups=576, bias=False)
          (4): BatchNorm2d(576, eps=1e-05, momentum=0.1, affine=False, track_running_stats=True)
          (5): ReLU6(inplace=True)
          (6): Conv2d(576, 160, kernel_size=(1, 1), stride=(1, 1), bias=False)
          (7): BatchNorm2d(160, eps=1e-05, momentum=0.1, affine=False, track_running_stats=True)
        )
      )
      (2): Choice_Block_mb(
        (cb_main): Sequential(
          (0): Conv2d(96, 576, kernel_size=(1, 1), stride=(1, 1), bias=False)
          (1): BatchNorm2d(576, eps=1e-05, momentum=0.1, affine=False, track_running_stats=True)
          (2): ReLU6(inplace=True)
          (3): Conv2d(576, 576, kernel_size=(7, 7), stride=(1, 1), padding=(3, 3), groups=576, bias=False)
          (4): BatchNorm2d(576, eps=1e-05, momentum=0.1, affine=False, track_running_stats=True)
          (5): ReLU6(inplace=True)
          (6): Conv2d(576, 160, kernel_size=(1, 1), stride=(1, 1), bias=False)
          (7): BatchNorm2d(160, eps=1e-05, momentum=0.1, affine=False, track_running_stats=True)
        )
      )
    )
    (13): ModuleList(
      (0): Choice_Block_mb(
        (cb_main): Sequential(
          (0): Conv2d(160, 960, kernel_size=(1, 1), stride=(1, 1), bias=False)
          (1): BatchNorm2d(960, eps=1e-05, momentum=0.1, affine=False, track_running_stats=True)
          (2): ReLU6(inplace=True)
          (3): Conv2d(960, 960, kernel_size=(3, 3), stride=(2, 2), padding=(1, 1), groups=960, bias=False)
          (4): BatchNorm2d(960, eps=1e-05, momentum=0.1, affine=False, track_running_stats=True)
          (5): ReLU6(inplace=True)
          (6): Conv2d(960, 160, kernel_size=(1, 1), stride=(1, 1), bias=False)
          (7): BatchNorm2d(160, eps=1e-05, momentum=0.1, affine=False, track_running_stats=True)
        )
      )
      (1): Choice_Block_mb(
        (cb_main): Sequential(
          (0): Conv2d(160, 960, kernel_size=(1, 1), stride=(1, 1), bias=False)
          (1): BatchNorm2d(960, eps=1e-05, momentum=0.1, affine=False, track_running_stats=True)
          (2): ReLU6(inplace=True)
          (3): Conv2d(960, 960, kernel_size=(5, 5), stride=(2, 2), padding=(2, 2), groups=960, bias=False)
          (4): BatchNorm2d(960, eps=1e-05, momentum=0.1, affine=False, track_running_stats=True)
          (5): ReLU6(inplace=True)
          (6): Conv2d(960, 160, kernel_size=(1, 1), stride=(1, 1), bias=False)
          (7): BatchNorm2d(160, eps=1e-05, momentum=0.1, affine=False, track_running_stats=True)
        )
      )
      (2): Choice_Block_mb(
        (cb_main): Sequential(
          (0): Conv2d(160, 960, kernel_size=(1, 1), stride=(1, 1), bias=False)
          (1): BatchNorm2d(960, eps=1e-05, momentum=0.1, affine=False, track_running_stats=True)
          (2): ReLU6(inplace=True)
          (3): Conv2d(960, 960, kernel_size=(7, 7), stride=(2, 2), padding=(3, 3), groups=960, bias=False)
          (4): BatchNorm2d(960, eps=1e-05, momentum=0.1, affine=False, track_running_stats=True)
          (5): ReLU6(inplace=True)
          (6): Conv2d(960, 160, kernel_size=(1, 1), stride=(1, 1), bias=False)
          (7): BatchNorm2d(160, eps=1e-05, momentum=0.1, affine=False, track_running_stats=True)
        )
      )
    )
    (14): ModuleList(
      (0): Choice_Block_mb(
        (cb_main): Sequential(
          (0): Conv2d(160, 960, kernel_size=(1, 1), stride=(1, 1), bias=False)
          (1): BatchNorm2d(960, eps=1e-05, momentum=0.1, affine=False, track_running_stats=True)
          (2): ReLU6(inplace=True)
          (3): Conv2d(960, 960, kernel_size=(3, 3), stride=(1, 1), padding=(1, 1), groups=960, bias=False)
          (4): BatchNorm2d(960, eps=1e-05, momentum=0.1, affine=False, track_running_stats=True)
          (5): ReLU6(inplace=True)
          (6): Conv2d(960, 160, kernel_size=(1, 1), stride=(1, 1), bias=False)
          (7): BatchNorm2d(160, eps=1e-05, momentum=0.1, affine=False, track_running_stats=True)
        )
      )
      (1): Choice_Block_mb(
        (cb_main): Sequential(
          (0): Conv2d(160, 960, kernel_size=(1, 1), stride=(1, 1), bias=False)
          (1): BatchNorm2d(960, eps=1e-05, momentum=0.1, affine=False, track_running_stats=True)
          (2): ReLU6(inplace=True)
          (3): Conv2d(960, 960, kernel_size=(5, 5), stride=(1, 1), padding=(2, 2), groups=960, bias=False)
          (4): BatchNorm2d(960, eps=1e-05, momentum=0.1, affine=False, track_running_stats=True)
          (5): ReLU6(inplace=True)
          (6): Conv2d(960, 160, kernel_size=(1, 1), stride=(1, 1), bias=False)
          (7): BatchNorm2d(160, eps=1e-05, momentum=0.1, affine=False, track_running_stats=True)
        )
      )
      (2): Choice_Block_mb(
        (cb_main): Sequential(
          (0): Conv2d(160, 960, kernel_size=(1, 1), stride=(1, 1), bias=False)
          (1): BatchNorm2d(960, eps=1e-05, momentum=0.1, affine=False, track_running_stats=True)
          (2): ReLU6(inplace=True)
          (3): Conv2d(960, 960, kernel_size=(7, 7), stride=(1, 1), padding=(3, 3), groups=960, bias=False)
          (4): BatchNorm2d(960, eps=1e-05, momentum=0.1, affine=False, track_running_stats=True)
          (5): ReLU6(inplace=True)
          (6): Conv2d(960, 160, kernel_size=(1, 1), stride=(1, 1), bias=False)
          (7): BatchNorm2d(160, eps=1e-05, momentum=0.1, affine=False, track_running_stats=True)
        )
      )
    )
    (15): ModuleList(
      (0): Choice_Block_mb(
        (cb_main): Sequential(
          (0): Conv2d(160, 960, kernel_size=(1, 1), stride=(1, 1), bias=False)
          (1): BatchNorm2d(960, eps=1e-05, momentum=0.1, affine=False, track_running_stats=True)
          (2): ReLU6(inplace=True)
          (3): Conv2d(960, 960, kernel_size=(3, 3), stride=(1, 1), padding=(1, 1), groups=960, bias=False)
          (4): BatchNorm2d(960, eps=1e-05, momentum=0.1, affine=False, track_running_stats=True)
          (5): ReLU6(inplace=True)
          (6): Conv2d(960, 320, kernel_size=(1, 1), stride=(1, 1), bias=False)
          (7): BatchNorm2d(320, eps=1e-05, momentum=0.1, affine=False, track_running_stats=True)
        )
      )
      (1): Choice_Block_mb(
        (cb_main): Sequential(
          (0): Conv2d(160, 960, kernel_size=(1, 1), stride=(1, 1), bias=False)
          (1): BatchNorm2d(960, eps=1e-05, momentum=0.1, affine=False, track_running_stats=True)
          (2): ReLU6(inplace=True)
          (3): Conv2d(960, 960, kernel_size=(5, 5), stride=(1, 1), padding=(2, 2), groups=960, bias=False)
          (4): BatchNorm2d(960, eps=1e-05, momentum=0.1, affine=False, track_running_stats=True)
          (5): ReLU6(inplace=True)
          (6): Conv2d(960, 320, kernel_size=(1, 1), stride=(1, 1), bias=False)
          (7): BatchNorm2d(320, eps=1e-05, momentum=0.1, affine=False, track_running_stats=True)
        )
      )
      (2): Choice_Block_mb(
        (cb_main): Sequential(
          (0): Conv2d(160, 960, kernel_size=(1, 1), stride=(1, 1), bias=False)
          (1): BatchNorm2d(960, eps=1e-05, momentum=0.1, affine=False, track_running_stats=True)
          (2): ReLU6(inplace=True)
          (3): Conv2d(960, 960, kernel_size=(7, 7), stride=(1, 1), padding=(3, 3), groups=960, bias=False)
          (4): BatchNorm2d(960, eps=1e-05, momentum=0.1, affine=False, track_running_stats=True)
          (5): ReLU6(inplace=True)
          (6): Conv2d(960, 320, kernel_size=(1, 1), stride=(1, 1), bias=False)
          (7): BatchNorm2d(320, eps=1e-05, momentum=0.1, affine=False, track_running_stats=True)
        )
      )
    )
  )
  (last_conv): Sequential(
    (0): Conv2d(320, 1280, kernel_size=(1, 1), stride=(1, 1), bias=False)
    (1): BatchNorm2d(1280, eps=1e-05, momentum=0.1, affine=False, track_running_stats=True)
    (2): ReLU6(inplace=True)
  )
  (global_pooling): AdaptiveAvgPool2d(output_size=1)
  (classifier): Linear(in_features=1280, out_features=10, bias=False)
)
01/18 06:03:28 PM 

01/18 06:03:30 PM [Supernet Training] lr: 0.02500 epoch: 001/600, step: 001/521, train_loss: 2.323(2.323), train_acc: 5.208(5.208)
01/18 06:03:43 PM [Supernet Training] lr: 0.02500 epoch: 001/600, step: 101/521, train_loss: 2.560(2.566), train_acc: 10.417(9.973)
01/18 06:03:56 PM [Supernet Training] lr: 0.02500 epoch: 001/600, step: 201/521, train_loss: 2.317(2.472), train_acc: 12.500(10.676)
…
